flowers-model-v1-3.pth (torch, 292962 bytes, 32 tensors)

weight f4 [50, 3, 7, 7]
0.11962221 0.13426113 0.11412973 0.118255064 -0.06781111 0.038352165 -0.08824617 0.038528506
0.036889255 -0.043286182 0.065548696 -0.025635043 -0.07646375 0.0529929 0.07094451 0.03988573
-0.056421243 -0.09256722 -0.09220478 -0.010285183 0.037232958 -0.008773008 -0.000294467 0.072001226
0.042352945 -0.016186234 0.046157982 0.010928905 -0.052698236 -0.05645829 0.054116618 0.10919164
0.015853781 0.004275364 -0.057429135 0.05222922 0.09560063 0.13586684 0.058943734 -0.0586335
-0.0589023 -0.06382179 -0.10160541 -0.03243541 0.088007 -0.0027059552 -0.05929088 -0.09204173
0.05512627 0.055429973 0.006302669 0.13264926 0.03049945 -0.12029412 -0.026084758 -0.16859575
0.14616264 -0.009320765 0.060659878 0.017721822 -0.020713259 -0.122450195 -0.14658281 -0.021703854
0.0887189 -0.0728396 -0.0236664 -0.0074943425 -0.057451263 -0.11948996 0.01075472 -0.030895283
-0.050775535 0.021342207 0.10736677 0.063756235 0.025049096 -0.10036141 -0.046528906 0.12860757
0.14385818 0.12855369 0.06353513 -0.069690496 -0.0779644 0.10836589 0.08231941 0.14511675
0.09513376 -0.011778194 -0.14570343 -0.053223044 -0.045661815 0.12267376 0.046261698 -0.013368757
-0.102977924 -0.07707038 0.108801275 -0.021090275 -0.0143868895 -0.053268164 -0.09412419 0.07091842
0.088527694 -0.024645189 -0.036267336 -0.050038382 -0.05557769 -0.1100643 0.033771705 -0.008422869
0.016395438 -0.039113596 -0.11129581 -0.15793471 -0.08779732 0.02664453 0.079733685 -0.17466804
-0.15265796 -0.1328961 -0.032905865 0.036415122 0.13561559 0.07007616 -0.12067139 -0.061984234
-0.040303424 0.050276842 -0.026948845 0.025393657 0.013029308 -0.0842172 -0.0060886554 -0.00826466
0.10795831 0.054523777 0.07852003 -0.044613324 -0.062114026 -0.11217946 -0.025350057 0.026465293
-0.01709338 -0.049956333 -0.051253382 0.0951245 0.043692507 0.028778713 -0.0016071185 0.06359044
0.0020596927 -0.07599512 -0.0025772632 0.14244412 0.00063084124 -0.07787246 -0.030025639 0.011292391
-0.021921355 0.036067903 0.07583458 0.05607986 -0.08151579 -0.07882956 -0.122664236 -0.053543232
0.15067568 0.13721791 -0.06710586 -0.07320128 -0.07908148 -0.0021319347 0.033779215 0.14717112
-0.042962637 -0.13784237 -0.17571828 -0.065215796 -0.079605415 -0.04312038 0.061627742 -0.12367327
-0.20792352 -0.09278619 0.0024429436 0.043740854 0.06693604 0.17927258 -0.13958143 -0.19519116
-0.013070008 0.05061389 -0.038189225 0.00044164213 -0.060786277 0.1046015 -0.060519557 -0.059682626
0.061818033 0.06518248 -0.053805 0.02276439 0.11465289 0.06838099 0.07836468 0.09020666
0.109897114 -0.017618455 0.10573431 0.10832125 0.058383536 -0.06486215 -0.055679064 0.010207828
-0.03164738 0.16204302 0.18729219 -0.013395027 -0.032254856 -0.11489868 0.011130856 -0.005677716
0.11665688 0.033933688 -0.122934565 -0.10287215 -0.1442507 -0.096782275 -0.012910807 0.047073793
-0.12439721 -0.026075698 -0.102098435 -0.08425367 -0.008156865 -0.033690564 0.20433578 -0.05185483
-0.10713711 0.0021124075 0.04575001 -0.010860354 -0.0006523369 -0.08353215 -0.028953543 -0.010710155
-0.106345676 0.10541963 0.095452674 0.010371137 -0.015767287 0.007965459 -0.049046803 0.011098887
00000000: 7dfc f43d c07b 093e d9bc e93d b62f f23d
00000010: 8de0 8abd 2917 1d3d 68ba b4bd 11d0 1d3d
00000020: 3019 173d da4c 31bd 653e 863d 9500 d2bc
00000030: 0799 9cbd 150f 593d 5b4b 913d 385f 233d
00000040: f619 67bd e293 bdbd dcd5 bcbd 2f83 28bc
00000050: 9681 183d aabc 0fbc b162 9ab9 6175 933d
00000060: 487a 2d3d fe98 84bc 2710 3d3d 260f 333c
00000070: 1bda 57bd cf40 67bd 63a9 5d3d de9f df3d
00000080: cadf 813c 5a18 8c3b d03a 6bbd 4eee 553d
00000090: 43ca c33d ad20 0b3e fc6e 713d ae29 70bd
000000a0: 8a43 71bd 00b5 82bd 7f16 d0bd feda 04bd
000000b0: 043d b43d 6556 31bb feda 72bd 6080 bcbd
000000c0: 15cc 613d 8a0a 633d 9f86 ce3b 35d5 073e
000000d0: fcd9 f93c c35c f6bd b4af d5bc 5da4 2cbe
000000e0: a9ab 153e 1fb6 18bc 7e76 783d 5b2d 913c
000000f0: daae a9bc 2bc7 fabd ce19 16be 48cc b1bc
00000100: 41b2 b53d ee2c 95bd 0ae0 c1bc 1a93 f5bb
00000110: 0452 6bbd 27b7 f4bd 9134 303c 1b18 fdbc
00000120: 02fa 4fbd dad5 ae3c 1ce3 db3d a192 823d
00000130: c333 cd3c 488a cdbd 1895 3ebd b4b1 033e
00000140: 8f4f 133e 94a3 033e b51e 823d e4b9 8ebd
00000150: cdab 9fbd f0ee dd3d 1497 a83d 7c99 143e
00000160: 7dd5 c23d 54f9 40bc 4833 15be 6800 5abd
00000170: e207 3bbd 613c fb3d e87c 3d3d a208 5bbc
00000180: 17e6 d2bd 13d7 9dbd 34d3 de3d 83c5 acbc
00000190: fdb6 6bbc b82f 5abd 2fc4 c0bd ad3d 913d
000001a0: 024e b53d b5e4 c9bc 0f8d 14bd 0cf5 4cbd
000001b0: 6fa5 63bd 6469 e1bd 3354 0a3d 1300 0abc
000001c0: ba4f 863c 9435 20bd 0fef e3bd a3b9 21be
000001d0: 15cf b3bd a145 da3c 6a4b a33d 2edc 32be
000001e0: 5e52 1cbe ea15 08be 4dc8 06bd 0628 153d
000001f0: d0de 0a3e 1784 8f3d 9022 f7bd 2ee3 7dbd
00000200: 3415 25bd 17ef 4d3d d3c3 dcbc 5c06 d03c
00000210: e178 553c 117a acbd 5883 c7bb 7f68 07bc
00000220: 3f19 dd3d 5354 5f3d 1ccf a03d 76bc 36bd
00000230: 476b 7ebd 58be e5bd ecaa cfbc becd d83c
00000240: 6b07 8cbc 039f 4cbd 11ef 51bd a2d0 c23d
00000250: eaf6 323d 56c1 eb3c f3a5 d2ba b43b 823d
00000260: e9fb 063b 54a3 9bbd 4de7 28bb dfdc 113e
00000270: 0a5f 253a 997b 9fbd 54f8 f5bc b903 393c
00000280: 6a94 b3bc f0bb 133d 294f 9b3d ffb3 653d
00000290: c0f1 a6bd 6471 a1bd 6337 fbbd 2650 5bbd
000002a0: ba4a 1a3e da82 0c3e cc6e 89bd 8dea 95bd
000002b0: 79f5 a1bd eeb7 0bbb 135c 0a3d 07b4 163e
000002c0: 97f9 2fbd 8d26 0dbe 7eef 33be dc8f 85bd
000002d0: 2a08 a3bd ff9e 30bd 5f6d 7c3d 6948 fdbd
000002e0: e7e9 54be b006 bebd cb19 203b 9c29 333d
000002f0: c315 893d 3b93 373e 6fee 0ebe 31e0 47be
00000300: 9623 56bc 8350 4f3d 4e6c 1cbd 348c e739
00000310: 08fb 78bd 5039 d63d 5be3 77bd c575 74bd
00000320: e834 7d3d 647e 853d a262 5cbd 637c ba3c
00000330: 22cf ea3d 550b 8c3d a97d a03d 45be b83d
00000340: bd11 e13d 9454 90bc 3b8b d83d 88d7 dd3d
00000350: 9323 6f3d 72d6 84bd bb0f 64bd bc3e 273c
00000360: afa0 01bd 9bee 253e 86c9 3f3e d176 5bbc
00000370: ab1d 04bd 0050 ebbd 325e 363c 220c babb
00000380: cde9 ee3d 0dfe 0a3d 1ec5 fbbd a2ae d2bd
00000390: 75b6 13be c935 c6bd d987 53bc 73d0 403d
000003a0: f7c3 febd b49c d5bc fc18 d1bd 308d acbd
000003b0: 5fa4 05bc 1eff 09bd 663d 513e bb65 54bd
000003c0: b36a dbbd 5170 0a3b 5d64 3b3d a0ef 31bc
000003d0: 9701 2bba e712 abbd fb2f edbc a579 2fbc
000003e0: c3cb d9bd 3fe6 d73d b17c c33d b4eb 293c
000003f0: 662a 81bc 8e81 023c 4de5 48bd 1bd8 353c

bias f4 [50]
0.09918763 0.038765483 0.0032708647 0.051833786 0.022298908 0.079922155 0.048943214 0.061326075
-0.03390914 0.030617068 -0.057154924 0.07716928 0.026140844 -0.093378395 -0.044892773 -0.008307338
-0.04904868 0.06007161 0.014120948 0.03091878 0.020674795 -0.012736496 0.039664436 0.04022348
-0.074625194 -0.0004205004 0.080459535 0.002557975 0.009012109 -0.07773272 0.010384553 0.012331459
0.033412628 -0.054954853 0.09128879 -0.024459425 0.017499667 0.014400011 -0.02281291 0.010627562
-0.008151421 0.07806094 0.022353016 0.022019275 0.07472049 -0.022887867 0.08114181 -0.055921383
0.03394163 -0.023078252
00000000: e222 cb3d 8ec8 1e3d 015c 563b aa4f 543d
00000010: 33ac b63c 3aae a33d ae78 483d 0d31 7b3d
00000020: 4fe4 0abd a5d0 fa3c 481b 6abd ed0a 9e3d
00000030: 5325 d63c 2c3d bfbd 7ce1 37bd 801b 08bc
00000040: 45e7 48bd a60d 763d 8c5b 673c 6249 fd3c
00000050: 305e a93c bcac 50bc 2d77 223d 60c1 243d
00000060: 18d5 98bd 9c76 dcb9 f8c7 a43d b3a3 273b
00000070: 86a7 133c 5532 9fbd f923 2a3c e309 4a3c
00000080: aedb 083d 5718 61bd 9ef5 ba3d 225f c8bc
00000090: 765b 8f3c 06ee 6b3c 24e2 babc 3a1f 2e3c
000000a0: 8a8d 05bc 6ade 9f3d ac1d b73c c461 b43c
000000b0: 0e07 993d 567f bbbc ad2d a63d d20d 65bd
000000c0: 6106 0b3d 9a0e bdbc

weight f4 [50]
0.9770666 0.9918267 1.0409228 0.9482885 0.9612449 0.98962176 1.0992044 1.1012428
0.9357471 0.96274936 1.109671 0.9809725 0.99569696 0.95471257 1.0298021 1.1102251
1.0354655 0.99196106 1.0670877 1.0210655 0.9843992 0.95820403 0.8522849 0.9789265
0.9465761 1.0408536 1.0201674 1.011202 1.0261208 1.0129677 0.86597055 1.0478833
1.114865 0.95561254 0.9075764 0.99363524 1.0558246 1.0127171 0.9790209 1.0675027
0.98202986 1.0982527 1.0406228 0.971143 1.0112926 0.98205674 1.0354764 0.9243796
0.9694811 1.0346949
00000000: 0921 7a3f 5be8 7d3f f53c 853f 09c3 723f
00000010: 2514 763f da57 7d3f bbb2 8c3f 86f5 8c3f
00000020: 1f8d 6f3f be76 763f b309 8e3f 0421 7b3f
00000030: ffe5 7e3f 0b68 743f 8ed0 833f db1b 8e3f
00000040: 228a 843f 29f1 7d3f 5496 883f 46b2 823f
00000050: 9601 7c3f dc4c 753f 582f 5a3f ed9a 7a3f
00000060: d052 723f b13a 853f d894 823f 116f 813f
00000070: ed57 833f eda8 813f 3fb0 5d3f 0a21 863f
00000080: e5b3 8e3f 06a3 743f ed56 683f e15e 7e3f
00000090: 4325 873f b7a0 813f 1da1 7a3f eea3 883f
000000a0: 4f66 7b3f 8b93 8c3f 2133 853f d49c 783f
000000b0: 0972 813f 1268 7b3f 7e8a 843f 24a4 6c3f
000000c0: ea2f 783f e270 843f

bias f4 [50]
-0.15568872 0.038185347 -0.0090651 -0.008009501 -0.16030069 -0.040072177 -0.11748253 -0.037680354
0.0026458367 -0.049400967 -0.037635837 -0.15871681 -0.20890452 -0.13105504 -0.03905497 0.058721796
-0.103815466 -0.14920509 0.00038528498 -0.095800325 -0.016677339 -0.013229335 0.040876254 0.12606758
-0.11775547 -0.06299124 -0.039649185 -0.0688907 -0.12968178 0.0057670427 0.09214937 0.016617615
0.12700282 0.18245493 -0.09278349 -0.07875427 0.29029772 -0.05217602 -0.09255453 -0.019108327
-0.1041926 0.068722986 -0.11669515 0.12709501 0.024176527 0.12699251 -0.10779802 -0.03235095
-0.011840139 0.027219664
00000000: dd6c 1fbe 3d68 1c3d c985 14bc 483a 03bc
00000010: dd25 24be b922 24bd ae9a f0bd b756 1abd
00000020: c665 2d3b ab58 4abd 0928 1abd a986 22be
00000030: 11eb 55be 4b33 06be 1bf8 1fbd 4486 703d
00000040: 349d d4bd 38c9 18be 1300 ca39 f632 c4bd
00000050: ea9e 88bc dabf 58bc dc6d 273d dc17 013e
00000060: c829 f1bd 8d01 81bd 2f67 22bd 9116 8dbd
00000070: 4dcb 04be 76f9 bc3b cfb8 bc3d aa21 883c
00000080: 070d 023e 77d5 3a3e 4505 bebd eb49 a1bd
00000090: e7a1 943e 86b6 55bd 3b8d bdbd 1189 9cbc
000000a0: ee62 d5bd a3be 8c3d defd eebd 3225 023e
000000b0: da0d c63c 530a 023e 35c5 dcbd 6e82 04bd
000000c0: 24fd 41bc c6fb de3c

running_mean f4 [50]
0.05274988 -0.2632137 -0.7021452 0.46750745 1.6202817 -0.2551068 -0.23892616 -0.4838462
0.91968143 2.021557 -0.8066095 0.6390225 0.34038413 0.75381744 -0.7697439 -0.9413451
0.24511881 0.45743498 -0.94481117 0.5660309 -0.4569521 1.0096276 0.008142436 0.5179774
-0.24983485 0.016389634 0.8732001 0.19986354 -0.47417295 0.10862621 0.03681659 -0.5747418
-0.5443661 0.18383946 0.088157825 0.3680153 0.15968615 0.4856643 0.39326322 -0.15840435
0.4508887 -1.404208 -0.5450333 1.0057905 2.3980465 0.1236877 0.47108456 -0.046805788
0.117809944 -0.47018728
00000000: 4210 583d f2c3 86be cabf 33bf 235d ef3e
00000010: 6465 cf3f 5c9d 82be 0fa9 74be b0ba f7be
00000020: 3e70 6b3f 3161 0140 f67d 4ebf fb96 233f
00000030: d446 ae3e 2efa 403f f00d 45bf fefb 70bf
00000040: 6d00 7b3e eb34 ea3e 25df 71bf 67e7 103f
00000050: a0f5 e9be 7a3b 813f da67 053c 2b9a 043f
00000060: b5d4 7fbe 8e43 863c 0b8a 5f3f 07a9 4c3e
00000070: ccc6 f2be 6b77 de3d fecc 163d 4722 13bf
00000080: 945b 0bbf 6940 3c3e 178c b43d 806c bc3e
00000090: c484 233e fea8 f83e cc59 c93e c034 22be
000000a0: e2da e63e 16bd b3bf 4d87 0bbf bebd 803f
000000b0: 9879 1940 fa4f fd3d ff31 f13e 6db7 3fbd
000000c0: 5746 f13d 63bc f0be

running_var f4 [50]
0.056025427 0.08721527 0.36597785 0.15666482 0.94754434 0.07648191 0.0704232 0.25366196
0.6244001 1.382159 0.4400411 0.22741698 0.081526995 0.3117918 0.21271902 0.5322041
0.37009573 0.07540992 0.40441447 0.12191287 0.14688103 0.44003376 0.01750152 0.5084719
0.17758898 0.15288058 0.31827483 0.020475512 0.1626283 0.15489286 0.020300647 0.21916863
0.38361034 0.3150816 0.0074019134 0.11099256 0.39331815 0.16780502 0.12565823 0.47769842
0.27341166 2.561461 0.18591851 0.7135928 2.6199996 0.4056064 0.07757811 0.0070582684
0.06224185 0.082020804
00000000: eb7a 653d eb9d b23d 7361 bb3e be6c 203e
00000010: 4492 723f 8ca2 9c3d 0a3a 903d fbdf 813e
00000020: afd8 1f3f 96ea b03f 114d e13e ffdf 683e
00000030: a0f7 a63d 2da3 9f3e 04d3 593e 873e 083f
00000040: 307d bd3e 8470 9a3d 6a0f cf3e 74ad f93d
00000050: fb67 163e 1b4c e13e 595f 8f3c 372b 023f
00000060: e3d9 353e ba8c 1c3e ebf4 a23e 43bc a73c
00000070: 0888 263e 3c9c 1e3e 8b4d a63c be6d 603e
00000080: 9368 c43e 6052 a13e c08b f23b 1150 e33d
00000090: ff60 c93e 14d5 2b3e 8dac 003e e394 f43e
000000a0: 9dfc 8b3e faee 2340 6c61 3e3e 05ae 363f
000000b0: 13ae 2740 a4ab cf3e 46e1 9e3d 0c49 e73b
000000c0: 4ff1 7e3d 86fa a73d

weight f4 [50, 50, 1, 1]
0.056388013 0.14684401 -0.06737628 -0.1496419 0.1213723 -0.048608862 0.112091415 -0.16365838
-0.0810973 0.13895318 -0.16367981 -0.101245835 0.02439534 0.117515355 0.05914292 0.1804801
0.16205342 -0.19509149 -0.2021143 -0.06586604 -0.21627973 0.12747651 0.030775528 0.0070869573
0.07882039 -0.067323536 -0.16548117 0.115156956 -0.17468485 -0.15038982 0.14356849 0.14123802
0.19573599 -0.008631164 0.09499749 0.15104821 0.035836127 0.06273021 0.13445579 -0.049834643
0.09350762 0.073228575 -0.09485063 -0.14086659 -0.055705227 0.1518115 -0.056714244 -0.06520109
-0.12351509 0.11035681 0.055000667 0.0047129686 0.15329516 0.09732588 -0.077476084 0.15694508
0.09610211 0.06218361 0.057512835 0.13016205 0.12158705 -0.050438456 -0.16707818 -0.020093292
0.10303288 -0.14009906 -0.033945736 0.11032787 -0.02883089 -0.10409592 0.066335864 0.011182172
-0.05624546 0.11633372 -0.026553847 -0.110907264 0.18287033 0.106460825 -0.20670582 -0.09478058
-0.17033061 0.11808422 -0.12232604 0.11242133 0.06334009 0.0760959 -0.11011908 0.05204433
0.01676997 -0.15668482 -0.031713128 -0.16622165 0.11317947 0.018228743 0.17087856 0.054307315
-0.06269259 0.09988794 0.07735164 0.08716555 -0.07364469 0.016266428 0.009497517 0.017513823
-0.10279638 -0.20928214 -0.062817246 0.19477734 -0.017996727 0.07430422 0.113635495 0.14079507
0.08262669 0.02988524 -0.043316685 -0.13872051 -0.17030336 0.005692954 0.15430745 -0.02436722
-0.083831266 -0.040842406 -0.0768161 0.006057116 0.03611398 -0.12856108 -0.070488945 0.10454211
-0.04072672 -0.16001326 -0.002329479 0.038067136 0.05227328 -0.065941 0.15076788 -0.035285972
0.025685571 0.093992874 -0.098953396 -0.18032297 0.0533284 0.06973958 -0.15916906 -0.038572013
-0.042186283 -0.09477647 -0.09448793 0.09959749 0.048262898 -0.044363666 0.06748963 -0.23963194
0.10459708 -0.04732544 -0.017626185 -0.06415451 0.16656847 0.05172685 -0.0017394961 0.057228073
-0.053127404 -0.16195336 0.048228677 0.012915619 -0.12972656 0.13517025 -0.03976055 0.06816915
-0.06265587 -0.17492016 0.17761627 0.11899628 0.12211236 -0.069338754 0.023195406 -0.0989086
0.13323812 0.035928894 -0.050156076 -0.08892767 0.07968174 0.17763051 0.07719743 0.059317797
0.054613907 0.14181139 -0.10250743 -0.13852954 -0.051406715 0.057191487 -0.26649565 -0.19516923
-0.017069979 -0.04533592 0.035129067 0.16991064 0.09341569 -0.08857511 0.05625016 -0.006408672
-0.035828196 0.054048695 0.15912455 -0.0334163 -0.080786094 0.13577697 0.07082098 0.07247323
0.047695775 0.1572112 -0.18175672 -0.07212632 0.07924508 0.0034472498 -0.0877507 -0.18318425
-0.032477424 -0.017045766 -0.1676358 0.10386157 0.059606258 0.023360804 0.11215052 0.13281183
-0.019445105 0.04460989 -0.08594939 -0.10738905 -0.014812573 -0.14655311 -0.20739722 0.12121513
0.046553552 0.044029344 0.10611971 -0.020481413 0.20217681 0.15757969 -0.16924863 -0.0350772
-0.10272638 -0.112480745 -0.014763216 -0.12665075 0.09200364 0.027587295 -0.011028115 -0.05138876
0.2024457 -0.0009346918 -0.05464545 -0.13278131 0.14991483 0.038839314 -0.04055989 0.08060897
00000000: 1ef7 663d 475e 163e 93fc 89bd ba3b 19be
00000010: 0a92 f83d 161a 47bd 2f90 e53d 1096 27be
00000020: 5716 a6bd be49 0e3e ae9b 27be fa59 cfbd
00000030: bcd8 c73c e4ab f03d d93f 723d c6cf 383e
00000040: 55f1 253e 10c6 47be 0df7 4ebe c6e4 86bd
00000050: 6f78 5dbe 3489 023e f61c fc3c b539 e83b
00000060: 966c a13d ece0 89bd e573 29be 69d7 eb3d
00000070: 96e0 32be caff 19be 9e03 133e b3a0 103e
00000080: 046f 483e ba69 0dbc 0b8e c23d 62ac 1a3e
00000090: e7c8 123d b278 803d c7ae 093e 691f 4cbd
000000a0: ec80 bf3d ddf8 953d 0c41 c2bd 553f 10be
000000b0: 2a2b 64bd 7974 1b3e 324d 68bd 2688 85bd
000000c0: 7bf5 fcbd c002 e23d 6148 613d 3f6f 9a3b
000000d0: 68f9 1c3e ca52 c73d c8ab 9ebd 36b6 203e
000000e0: 2fd1 c43d 3eb4 7e3d 9492 6b3d 3349 053e
000000f0: a202 f93d 8e98 4ebd 8b16 2bbe b09a a4bc
00000100: e702 d33d 2176 0fbe af0a 0bbd 94f3 e13d
00000110: c22e ecbc 3e30 d5bd 19db 873d 6e35 373c
00000120: a461 66bd 6040 ee3d 7487 d9bc 5923 e3bd
00000130: 5c42 3b3e 2208 da3d b1aa 53be 521c c2bd
00000140: 266b 2ebe 24d6 f13d 1386 fabd 273d e63d
00000150: 73b8 813d 2bd8 9b3d 1d86 e1bd 6f2c 553d
00000160: 2d61 893c fc71 20be a0e5 01bd 0236 2abe
00000170: a3ca e73d 7254 953c cafa 2e3e 5971 5e3d
00000180: f964 80bd 0c92 cc3d 896a 9e3d da83 b23d
00000190: 07d3 96bd 2c41 853c 799b 1b3c 2679 8f3c
000001a0: e986 d2bd 0f4e 56be 54a6 80bd b673 473e
000001b0: df6d 93bc d02c 983d bab9 e83d 952c 103e
000001c0: 2f38 a93d e4d1 f43c d66c 31bd c00c 0ebe
000001d0: 0164 2ebe f68b ba3b c602 1e3e c49d c7bc
000001e0: baaf abbd 5e4a 27bd c251 9dbd c67a c63b
000001f0: 41ec 133d 84a5 03be 825c 90bd 2c1a d63d
00000200: 10d1 26bd 84da 23be 2caa 18bb 49ec 1b3d
00000210: 821c 563d 130c 87bd e562 1a3e 0688 10bd
00000220: 8c6a d23c 567f c03d 14a8 cabd 96a6 38be
00000230: e16e 5a3d a0d3 8e3d 37fd 22be b0fd 1dbd
00000240: 86cb 2cbd 2a1a c2bd e382 c1bd c5f9 cb3d
00000250: 51af 453d adb6 35bd 0138 8a3d 1362 75be
00000260: fe36 d63d 52d8 41bd ca64 90bc 7163 83bd
00000270: ed90 2a3e 89df 533d ceff e3ba fc67 6a3d
00000280: 1f9c 59bd 1ad7 25be 6f8b 453d 089c 533c
00000290: 0ad7 04be 126a 0a3e f5db 22bd 449c 8b3d
000002a0: b951 80bd 451e 33be 0ae1 353e 52b4 f33d
000002b0: 0c16 fa3d 7a01 8ebd 4b04 be3c 9890 cabd
000002c0: 936f 083e 2d2a 133d 7570 4dbd b61f b6bd
000002d0: 2e30 a33d c6e4 353e b019 9e3d 38f7 723d
000002e0: d5b2 5f3d 0137 113e 6aef d1bd b0da 0dbe
000002f0: d98f 52bd 9f41 6a3d 1e72 88be 71da 47be
00000300: 57d6 8bbc 28b2 39bd 7fe3 0f3d 0efd 2d3e
00000310: ba50 bf3d de66 b5bd 9166 663d d6ff d1bb
00000320: 96c0 12bd 2a62 5d3d 8cf1 223e 88df 08bd
00000330: 2e73 a5bd 1e09 0b3e 970a 913d d86c 943d
00000340: a55c 433d f9fb 203e 6f1e 3abe f7b6 93bd
00000350: 3f4b a23d 41eb 613b a4b6 b3bd a794 3bbe
00000360: 0c07 05bd 90a3 8bbc b8a8 2bbe 60b5 d43d
00000370: b125 743d 285f bf3c 2caf e53d d3ff 073e
00000380: 574b 9fbc dcb8 363d 3c06 b0bd caee dbbd
00000390: 6fb0 72bc 0512 16be f05f 54be a33f f83d
000003a0: f0ae 3e3d 1d58 343d 4a55 d93d a3c8 a7bc
000003b0: 7007 4f3e 925c 213e 834f 2dbe 1cad 0fbd
000003c0: 3562 d2bd 4e5c e6bd 6ae1 71bc bcb0 01be
000003d0: 686c bc3d c0fe e13c 44af 34bc 057d 52bd
000003e0: ed4d 4f3e 1b06 75ba e8d3 5fbd d3f7 07be
000003f0: 4683 193e f915 1f3d 2122 26bd 5116 a53d

bias f4 [50]
-0.13446933 -0.0019096812 -0.11476305 -0.04139262 -0.13458094 0.10376242 -0.055016235 0.040621705
-0.010138061 -0.12566583 -0.060933985 0.00891562 -0.09070712 -0.051496863 -0.048465267 0.09521487
-0.05836804 0.12965895 -0.0735333 -0.035935957 -0.01617744 -0.006040942 -0.12584968 0.12012446
0.073338926 0.07334502 -0.065896325 -0.09808407 -0.07114677 -0.06521676 -0.09143714 -0.11714833
-0.010267697 -0.11271532 -0.121508256 -0.12658319 0.10898026 0.13876975 -0.050696336 -0.05286708
0.03188695 -0.00629291 0.09250343 0.124626696 0.01902966 0.0693217 0.11700485 0.0062260954
0.09379312 -0.047126167
00000000: 54b2 09be 454e faba e408 ebbd 4f8b 29bd
00000010: 96cf 09be 6481 d43d b458 61bd f262 263d
00000020: 1c1a 26bc 8bae 00be ea95 79bd d212 123c
00000030: a8c4 b9bd 60ee 52bd 8483 46bd 0400 c33d
00000040: 5313 6fbd 51c5 043e a098 96bd 9531 13bd
00000050: 8d86 84bc 18f3 c5bb bdde 00be d003 f63d
00000060: b832 963d ea35 963d a7f4 86bd 4de0 c8bd
00000070: 66b5 91bd 5d90 85bd 6543 bbbd 77eb efbd
00000080: d839 28bc 4ad7 e6bd 52d9 f8bd 069f 01be
00000090: 0b31 df3d a819 0e3e f6a6 4fbd 278b 58bd
000000a0: e49b 023d c134 cebb 7072 bd3d 483c ff3d
000000b0: 17e4 9b3c 89f8 8d3d 3da0 ef3d 4604 cc3b
000000c0: 9b16 c03d 5e07 41bd

weight f4 [50, 50, 3, 3]
0.054003984 0.14331473 0.07962256 -0.043738734 -0.1681134 -0.045146324 0.071912825 0.0008251265
-0.014622589 0.04192716 -0.048091274 0.0031084474 -0.052995805 0.02384594 -0.15135929 -0.016075792
0.031272665 0.05462818 -0.004884132 -0.041341238 -0.036567334 -0.10114404 -0.010316977 0.059819084
-0.04552444 0.052305046 -0.10406961 0.06872975 0.016558949 0.115714 -0.03339264 -0.0031739266
0.041871164 -0.09728592 0.10622585 0.16770396 -0.04486189 0.028832309 0.093037665 -0.06359269
0.09580494 0.015503502 0.12502171 0.14383131 -0.061734222 0.07776159 -0.0033644647 -0.09670577
0.114253275 -0.05531971 0.08542481 -0.0090617435 0.029431479 0.07467856 0.010576208 -0.009171298
-0.010794965 -0.078343354 -0.031638943 0.07470648 -0.048878163 -0.029360421 -0.048669696 -0.020667717
-0.00025991094 -0.014188864 0.032641914 0.1261877 -0.043640483 -0.07769679 -0.09675218 -0.03534375
0.079955295 -0.0583184 -0.16634423 -0.10209443 -0.040610548 -0.20600195 -0.19991547 -0.1534897
0.006344725 -0.041879285 -0.11426355 -0.054050077 -0.021642338 -0.016941749 -0.084310316 -0.12823245
-0.108288944 0.013495488 -0.20665309 -0.16664666 0.07827732 -0.008844576 0.039998196 0.008892678
0.0019454241 -0.08166698 0.0015911892 0.07303695 0.017131358 -0.013104953 -0.10139554 -0.050392885
0.0015024947 -0.03784147 0.05655541 0.06324243 -0.03390842 0.044440538 -0.03277157 -0.011901554
0.04032226 -0.06670913 -0.052864254 -0.008888066 0.09566939 -0.23182018 0.020543532 -0.06483037
-0.08644328 0.015766082 0.040597364 0.053560227 -0.0729468 -0.0010391802 0.0073587713 -0.0013415114
0.08465894 0.008556699 0.059475623 -0.028317576 0.07260444 -0.038599733 0.11892897 -0.02463085
0.01320485 0.033802956 -0.01255216 -0.0474057 -0.022974242 0.015054251 -0.01834689 0.05495099
-0.0061037485 -0.056886204 -0.04817428 0.115890004 -0.04589922 -0.0318114 0.103235126 -0.017143449
-0.022577796 0.06642564 0.09905853 -0.0894576 -0.03013246 0.018766074 -0.12924364 -0.025023425
-0.014339593 -0.013184499 0.048038483 0.16618076 -0.0569474 -0.010554287 -0.007995599 0.06306826
0.003539198 0.08334023 -0.048815385 0.0649087 0.037217017 0.03351251 0.055457264 0.02291536
0.11222646 -0.007634136 0.049945846 0.06955212 0.08214497 0.08460956 0.047524102 -0.03509405
-0.029465806 -0.012794701 0.029187914 0.03968621 0.08551496 -0.09023561 -0.095607415 0.15206222
0.028750142 0.025723156 0.118525565 0.06554153 -0.030097581 0.06222844 0.025429375 0.028744904
-0.0799016 -0.037175935 -0.021400578 -0.036412116 -0.068115 -0.08900518 0.052069798 -0.074432045
0.13299178 0.006942085 -0.010497703 -0.06616857 -0.016187195 0.13709684 0.027665606 -0.057522915
0.019386064 -0.013535653 0.035807647 0.011138078 -0.008923968 0.060707357 0.031017948 -0.04734139
-0.0032685944 0.044935957 0.0077290065 -0.101215936 -0.062597826 -0.0040787174 0.017261278 -0.023039373
0.0810356 -0.0747517 -0.09450604 -0.117288634 -0.09491039 0.12496101 0.043406658 -0.07219914
-0.0770842 -0.08839847 -0.102023125 -0.019316874 -0.04427803 0.049801376 0.10385825 0.13595033
-0.12386919 -0.0057513365 -0.06471642 0.093993716 -0.11532103 -0.07063416 0.071225375 -0.12674367
00000000: 4833 5d3d 19c1 123e 2711 a33d 6327 33bd
00000010: eb25 2cbe 5aeb 38bd 0847 933d 4d4d 583a
00000020: 9593 6fbc d0bb 2b3d 5bfb 44bd 18b7 4b3b
00000030: 2112 59bd 9058 c33c eefd 1abe 61b1 83bc
00000040: c417 003d ccc1 5f3d 120b a0bb 6e55 29bd
00000050: a1c7 15bd 9b24 cfbd 8a08 29bc db04 753d
00000060: d677 3abd d13d 563d 7322 d5bd 2fc2 8c3d
00000070: a2a6 873c 76fb ec3d b9c6 08bd a701 50bb
00000080: 1981 2b3d d73d c7bd f08c d93d 96ba 2b3e
00000090: 1ac1 37bd bc31 ec3c 888a be3d e23c 82bd
000000a0: 6135 c43d 6702 7e3c b105 003e 8448 133e
000000b0: 06dd 7cbd 7841 9f3d 5a7e 5cbb ad0d c6bd
000000c0: 9ffd e93d ec96 62bd 34f3 ae3d b577 14bc
000000d0: 491a f13c 13f1 983d d547 2d3c 3643 16bc
000000e0: 5ddd 30bc 7b72 a0bd d697 01bd b6ff 983d
000000f0: 7834 48bd 4485 f0bc e059 47bd 584f a9bc
00000100: a844 88b9 6978 68bc 87b3 053d 5937 013e
00000110: 5dc0 32bd 7f1f 9fbd 0226 c6bd 9cc4 10bd
00000120: 9abf a33d 46df 6ebd 2456 2abe e216 d1bd
00000130: 3f57 26bd 2df2 52be a4b6 4cbe 672c 1dbe
00000140: 69e7 cf3b 9d89 2bbd 0203 eabd 9d63 5dbd
00000150: 464b b1bc 6cc9 8abc e3aa acbd 5e4f 03be
00000160: 98c6 ddbd 2e1c 5d3c de9c 53be 6ca5 2abe
00000170: dc4f a03d d7e8 10bc 26d5 233d 98b2 113c
00000180: 9afd fe3a 0541 a7bd 738f d03a 6594 953d
00000190: 1057 8c3c 28b6 56bc 77a8 cfbd c568 4ebd
000001a0: 5bef c43a a8ff 1abd a5a6 673d 3f85 813d
000001b0: 8ee3 0abd 4807 363d 7b3b 06bd bcfe 42bc
000001c0: f428 253d cc9e 88bd 3088 58bd 409f 11bc
000001d0: 50ee c33d 4562 6dbe e94a a83c c9c5 84bd
000001e0: 2d09 b1bd df27 813c 6c49 263d f861 5b3d
000001f0: 2265 95bd 1a35 88ba d921 f13b a7d5 afba
00000200: ab61 ad3d 6631 0c3c b69c 733d 43fa e7bc
00000210: a3b1 943d c11a 1ebd 0891 f33d a3c6 c9bc
00000220: 2859 583c f874 0a3d 93a7 4dbc 7b2c 42bd
00000230: 7a34 bcbc 1ba6 763c 384c 96bc 4a14 613d
00000240: f401 c8bb 8201 69bd 6552 45bd bd57 ed3d
00000250: d200 3cbd ac4c 02bd f06c d33d 6b70 8cbc
00000260: 12f5 b8bc 2a0a 883d 33df ca3d 8c35 b7bd
00000270: 59d8 f6bc 4fbb 993c 7258 04be edfd ccbc
00000280: 9df0 6abc cc03 58bc 00c4 443d 4a2b 2a3e
00000290: ad41 69bd e3eb 2cbc f9ff 02bc ef29 813d
000002a0: e4f1 673b 48ae aa3d a4f2 47bd daee 843d
000002b0: df70 183d 6a44 093d 2827 633d feb8 bb3c
000002c0: fcd6 e53d c627 fabb 0494 4c3d 5871 8e3d
000002d0: 9f3b a83d c747 ad3d a2a8 423d c7be 0fbd
000002e0: 4662 f1bc dea0 51bc 7e1b ef3c 028e 223d
000002f0: 7822 af3d 73cd b8bd d2cd c3bd 33b6 1b3e
00000300: 6b85 eb3c 5eb9 d23c 88bd f23d a33a 863d
00000310: 348f f6bc 40e3 7e3d 4451 d03c 6f7a eb3c
00000320: 73a3 a3bd cb45 18bd 4450 afbc df24 15bd
00000330: e17f 8bbd 5948 b6bd 2447 553d d46f 98bd
00000340: ff2e 083e 6e7a e33b 8ffe 2bbc 6383 87bd
00000350: 029b 84bc 1d63 0c3e fba2 e23c 269d 6bbd
00000360: 86cf 9e3c a5c4 5dbc 0aab 123d 7c7c 363c
00000370: d635 12bc 47a8 783d 5a19 fe3c 0ce9 41bd
00000380: ea35 56bb c40e 383d 9b43 fd3b 4d4a cfbd
00000390: 4a33 80bd c3a6 85bb 8667 8d3c 11bd bcbc
000003a0: fef5 a53d 6b17 99bd 628c c1bd 0635 f0bd
000003b0: 6160 c2bd 8feb ff3d 2ecb 313d 25dd 93bd
000003c0: 52de 9dbd 420a b5bd 80f1 d0bd 6c3e 9ebc
000003d0: e15c 35bd 87fc 4b3d a2b3 d43d 9036 0b3e
000003e0: 21af fdbd b575 bcbb 0b8a 84bd c77f c03d
000003f0: 6f2d ecbd a4a8 90bd 9cde 913d 18c9 01be

bias f4 [50]
0.018990949 0.02894561 0.005025197 -0.0063888677 0.043709718 0.029437007 -0.03651439 -0.013914876
-0.043721385 0.00084573065 -0.0047192113 0.02816142 0.0094984695 0.024927584 0.00046293708 -0.014473607
-0.01460133 0.0038231185 -0.0319263 0.038062476 0.0010832109 0.001196121 0.020710561 -0.029795587
0.015139692 -0.0043836455 -0.016803535 -0.028549006 0.0023059815 0.03228575 0.007789161 0.0016275125
0.027693715 0.0328549 0.021570018 0.0450729 0.036748447 0.03162905 -0.00049185817 -0.041234054
0.039181318 0.008100654 -0.006222432 -0.03110509 0.0097438395 -0.029986 -0.0014381503 0.041624952
-0.019859714 -0.025144383
00000000: e892 9b3c 581f ed3c 68aa a43b b559 d1bb
00000010: f608 333d e125 f13c 1d90 15bd 38fb 63bc
00000020: 3215 33bd 06b4 5d3a 9da3 9abb c7b2 e63c
00000030: 789f 1b3c ef34 cc3c 5db6 f239 b522 6dbc
00000040: 6b3a 6fbc 498d 7a3b 27c5 02bd 66e7 1b3d
00000050: 87fa 8d3a 29c7 9c3a 32a9 a93c e015 f4bc
00000060: 790c 783c afa4 8fbb 91a7 89bc 9bdf e9bc
00000070: f31f 173b 103e 043d 383c ff3b 4252 d53a
00000080: eedd e23c dc92 063d 9bb3 b03c 5c9e 383d
00000090: 8a85 163d 768d 013d 0bf0 00ba 0ae5 28bd
000000a0: 977c 203d 9bb8 043c 8be5 cbbb 1ad0 febc
000000b0: a0a4 1f3c 33a5 f5bc 5180 bcba ed7e 2a3d
000000c0: d7b0 a2bc 98fb cdbc

weight f4 [50, 50, 1, 1]
-0.12824358 0.114178486 -0.046387203 -0.012032293 -0.094898775 0.17072928 0.053375524 -0.16280805
-0.0872605 0.11881912 0.012824907 -0.15273173 0.039084513 0.053023048 0.03570415 -0.100360274
-0.15710264 0.11584283 0.00880777 -0.08050457 -0.009207221 -0.023553854 0.016262954 -0.19100809
-0.031066965 0.014806567 0.08629873 0.13131452 -0.08485052 0.117334776 0.013074574 0.09287659
0.11459453 0.16466336 0.08483559 -0.03415593 0.04239628 -0.0788287 0.11639898 0.008970331
0.092239395 0.19884522 -0.17923851 -0.04588478 -0.022130154 -0.020588448 0.09382658 -0.143154
-0.26093426 -0.15924345 0.045947723 0.1395734 -0.11110777 0.06654559 0.16839233 0.047442645
-0.01876146 0.017325737 -0.13792606 -0.04444553 0.113651454 -0.12114897 -0.08861309 0.10054941
-0.17797777 -0.17391884 -0.011972838 -0.0032893093 0.0006917547 0.11282668 0.123457514 0.08868226
0.13945797 0.18576922 0.017317165 0.13730755 0.038938485 -0.0051676277 -0.1351947 0.06852423
-0.13547662 -0.00055254507 -0.2009373 -0.15041642 -0.04044061 0.009748283 0.0520384 0.1426965
0.08342422 -0.0031570876 -0.014716442 0.14403316 -0.15025653 0.09777886 -0.00798915 0.09136389
0.15291117 -0.03298858 0.09518928 0.14885263 -0.07571862 0.12187293 0.1341215 0.040780943
0.032562777 -0.086542875 0.13242143 -0.13961747 0.038040232 -0.08089299 -0.022689812 0.22563688
0.13571613 0.004605164 -0.18934645 0.14909644 0.0911531 0.031300765 0.08433614 -0.14047484
-0.08570986 0.0027821343 -0.07185045 0.047108043 -0.045345727 -0.10694263 -0.048544 0.053706527
0.17446072 -0.04786174 0.07103355 -0.1022587 0.13145186 -0.17582105 0.0269876 0.17851153
0.12366645 0.04286215 0.1595281 -0.057005562 0.01665517 0.08687936 -0.043047283 -0.06109294
0.030250568 -0.13520037 0.011465041 -0.11243632 -0.099186905 0.036301773 0.03902795 -0.030769581
0.0671984 0.050963327 0.18322039 -0.018867737 -0.15837844 0.10108988 0.04754067 -0.019154012
-0.07895532 0.049638044 -0.07677524 0.039376277 0.15695876 -0.18619564 -0.19953524 -0.07531191
0.0107594915 -0.032543574 0.1567941 -0.1099282 0.0102853235 0.02457558 -0.044760138 0.08553702
-0.015423478 -0.13118364 -0.06127498 0.02911695 0.112658784 -0.00686412 0.11775245 -0.05935372
0.035621725 -0.15105774 -0.10292876 -0.03120807 -0.0815667 0.13916424 -0.14981781 -0.040007934
-0.09794353 -0.14785238 -0.044296443 -0.0990885 0.13859046 0.09240918 -0.18129034 0.17726888
0.216429 0.062511176 0.03689038 0.10465234 -0.035500553 -0.15931436 -0.007704849 0.09608486
-0.120880514 0.035915736 0.08448171 -0.07347273 -0.07324619 -0.014791464 0.047156293 -0.12693992
-0.072519265 0.21403205 -0.1573529 -0.00028390097 0.1006206 -0.20736986 -0.14239377 -0.11998089
0.090384886 -0.114470676 -0.014780772 0.023919052 0.13607225 -0.1026624 -0.040933695 0.032184944
0.018108811 -0.06576477 -0.08332768 -0.070645936 0.14034143 -0.017905176 0.13856494 0.03851199
0.033825662 0.071203195 0.16287434 0.104413465 -0.09993616 0.062060278 0.16406012 0.04803508
0.13864812 0.039482865 -0.11355592 0.034415297 -0.013547025 -0.030210363 -0.16066636 -0.030733448
00000000: 4952 03be 69d6 e93d 8200 3ebd 1823 45bc
00000010: 4a5a c2bd a8d3 2e3e 4ba0 5a3d 27b7 26be
00000020: a2b5 b2bd 7057 f33d 8f1f 523c b565 1cbe
00000030: 1517 203d b22e 593d 843e 123d b089 cdbd
00000040: 84df 20be 013f ed3d 774e 103c 94df a4bd
00000050: e2d9 16bc 03f4 c0bc e339 853c a097 43be
00000060: 2680 febc 3e97 723c 63bd b03d 5077 063e
00000070: 1cc6 adbd 374d f03d bd36 563c 1536 be3d
00000080: 89b0 ea3d 839d 283e 48be ad3d 17e7 0bbd
00000090: b9a7 2d3d f170 a1bd 9762 ee3d 4cf8 123c
000000a0: 02e8 bc3d 159e 4b3e 4d8a 37be aef1 3bbd
000000b0: 4c4a b5bc 1ba9 a8bc 2628 c03d f696 12be
000000c0: 2d99 85be b710 23be ae33 3c3d 54ec 0e3e
000000d0: 788c e3bd 0e49 883d 0a6f 2c3e 3853 423d
000000e0: a2b1 99bc b4ee 8d3c 7d3c 0dbe 840c 36bd
000000f0: 18c2 e83d f41c f8bd c87a b5bd d9ec cd3d
00000100: ce3f 36be c817 32be b929 44bc 7491 57bb
00000110: df56 353a ad11 e73d 4bd7 fc3d 0b9f b53d
00000120: 12ce 0e3e 493a 3e3e badc 8d3c 5a9a 0c3e
00000130: f67d 1f3d 3455 a9bb 7b70 0abe 6e56 8c3d
00000140: 62ba 0abe acd8 10ba 82c2 4dbe c306 1abe
00000150: 0ea5 25bd 43b7 1f3c 3826 553d 081f 123e
00000160: 51da aa3d 24e7 4ebb 3b1d 71bc 6e7d 133e
00000170: d9dc 19be 4840 c83d ece4 02bc fe1c bb3d
00000180: bf94 1c3e 091f 07bd 99f2 c23d d36c 183e
00000190: 5d12 9bbd 8498 f93d 2657 093e eb09 273d
000001a0: 8c60 053d 643d b1bd 7c99 073e e2f7 0ebe
000001b0: 13d0 1b3d 39ab a5bd fcdf b9bc 5b0d 673e
000001c0: 2bf9 0a3e eae6 963b 09e4 41be bdac 183e
000001d0: 7aae ba3d 3b35 003d 6db8 ac3d a3d8 0fbe
000001e0: a788 afbd 7854 363b 5426 93bd 5df4 403d
000001f0: 71bc 39bd bd04 dbbd 13d6 46bd 60fb 5b3d
00000200: d5a5 323e ac0a 44bd 0a7a 913d 026d d1bd
00000210: 519b 063e 6f0a 34be 1915 dd3c bacb 363e
00000220: d644 fd3d 3990 2f3d 565b 233e aa7e 69bd
00000230: 6c70 883c ceed b13d 5952 30bd 973c 7abd
00000240: 0ad0 f73c f771 0abe ded7 3b3c 0345 e6bd
00000250: 8122 cbbd 2bb1 143d c6db 1f3d 7d10 fcbc
00000260: 519f 893d ecbe 503d 209e 3b3e 8390 9abc
00000270: f52d 22be 3608 cf3d 01ba 423d e0e8 9cbc
00000280: 54b3 a1bd 4351 4b3d 563c 9dbd 0549 213d
00000290: ccb9 203e 12aa 3ebe f752 4cbe 213d 9abd
000002a0: 9448 303c 694c 05bd a28e 203e 0922 e1bd
000002b0: c683 283c ba52 c93c 6856 37bd 082e af3d
000002c0: c1b2 7cbc 0155 06be 79fb 7abd ac86 ee3c
000002d0: a6b9 e63d 69ec e0bb 3228 f13d e31c 73bd
000002e0: 16e8 113d e1ae 1abe 50cc d2bd 11a8 ffbc
000002f0: 710c a7bd 1281 0e3e d769 19be 5cdf 23bd
00000300: 9e96 c8bd 9d66 17be 3070 35bd e9ee cabd
00000310: a8ea 0d3e 0641 bd3d 2da4 39be f985 353e
00000320: 909f 5d3e dc05 803d 5e1a 173d f753 d63d
00000330: 0769 11bd 4e23 23be f578 fcbb 24c8 c43d
00000340: 3490 f7bd 611c 133d bf04 ad3d df78 96bd
00000350: 1902 96bd e657 72bc f526 413d 8afc 01be
00000360: fb84 94bd 382b 5b3e 1e21 21be 8bd8 94b9
00000370: 2c12 ce3d c458 54be accf 11be 8ab8 f5bd
00000380: b61b b93d 9a6f eabd 0d2b 72bc e3f1 c33c
00000390: 8656 0b3e aa40 d2bd 17aa 27bd 5cd4 033d
000003a0: ee58 943c aeaf 86bd b4a7 aabd d1ae 90bd
000003b0: aab5 0f3e e0ad 92bc f8e3 0d3e c0be 1d3d
000003c0: c78c 0a3d fbd2 913d 88c8 263e bad6 d53d
000003d0: 54ab ccbd eb32 7e3d 60ff 273e 6fc0 443d
000003e0: c6f9 0d3e c9b8 213d 0290 e8bd 0ef7 0c3d
000003f0: 57f4 5dbc b97b f7bc b985 24be b6c4 fbbc

bias f4 [50]
-0.12691233 0.045796424 0.072768226 -0.11215478 -0.045085963 -0.13906725 0.12149951 -0.074227825
-0.055346724 0.12805729 0.057583224 -0.031727906 0.051680345 0.062122345 0.107932135 -0.101077065
0.092095464 -0.0054162727 0.031230671 0.008709472 0.026545027 0.06917828 -0.079916306 -0.09121343
-0.03556386 0.13672358 -0.035653062 0.00861036 -0.06175534 -0.08065128 -0.13638455 0.0944235
0.12659672 -0.081858255 0.01168446 -0.0075862934 0.023330271 -0.139046 -0.0036564325 -0.14584114
-0.13850571 0.050721657 0.09334974 0.08932137 0.111191116 -0.014120603 -0.10548202 0.13132012
-0.04439044 -0.09271677
00000000: 4ef5 01be 0895 3b3d 8207 953d 68b1 e5bd
00000010: 0fac 38bd a567 0ebe bcd4 f83d c204 98bd
00000020: 3fb3 62bd 7321 033e 63dc 6b3d 1ff5 01bd
00000030: c5ae 533d 0074 7e3d 860b dd3d 7e01 cfbd
00000040: 8c9c bc3d fd7a b1bb 77d7 ff3c 2cb2 0e3c
00000050: f574 d93c 58ad 8d3d 29ab a3bd 1bce babd
00000060: 69ab 11bd 4401 0c3e f208 12bd 7812 0d3c
00000070: 2bf3 7cbd 802c a5bd 64a8 0bbe 1c61 c13d
00000080: 92a2 013e 4da5 a7bd 2d70 3f3c 7196 f8bb
00000090: 201f bf3c 1362 0ebe c2a0 6fbb 6157 15be
000000a0: 71d4 0dbe 83c1 4f3d 262e bf3d 1fee b63d
000000b0: 2bb8 e33d 1a5a 67bc f506 d8bd c878 063e
000000c0: c0d2 35bd 4ae2 bdbd

weight f4 [50, 50, 1, 1]
0.22635067 -0.134 -0.04692788 -0.10317809 -0.14810567 0.092540875 0.04662673 -0.07542782
-0.23856574 -0.09895777 -0.12537052 -0.18940616 0.1150926 0.08144626 0.18502815 0.049237423
0.0055168197 0.033072066 -0.0214843 0.11045849 -0.034719154 -0.02910911 -0.1827467 -0.010708923
0.17465761 0.14416799 -0.077708565 -0.18119988 0.1163851 0.111256525 -0.12848544 0.0015503259
-0.014167152 -0.08583443 -0.056678873 -0.04884014 0.09556328 -0.098418586 0.17944989 -0.013573412
0.08529225 -0.059329823 -0.12953666 0.04929013 -0.012173315 0.08381084 -0.019080978 0.13094284
-0.20494746 0.08442965 -0.012107665 0.17194852 -0.106973216 0.0019744933 0.06977627 -0.20376495
0.061183542 0.015530827 0.020603264 0.038294103 -0.06943524 0.0069948896 -0.011201148 -0.0036112736
0.16583012 0.008651027 0.2963218 -0.18070455 0.046255462 0.20910043 0.13424405 0.06283565
-0.09778873 0.007819235 -0.1070012 -0.17642327 0.06625827 -0.011188426 0.039222617 -0.057995215
0.08207583 0.13151933 -0.023648754 -0.04831696 0.058992498 -0.04150315 -0.0027640038 0.036653113
-0.0115543045 -0.15398341 0.12940286 0.09239764 0.10889529 0.035671763 -0.015692143 0.09938119
0.01657004 -0.118952185 -0.115521364 -0.1351584 0.014242753 -0.10771922 -0.06902193 0.05042172
-0.014996231 0.009308749 -0.13311757 -0.032851055 -0.19932495 0.12644038 -0.012077943 0.064188525
0.19181813 0.07238861 0.064944215 -0.051021397 -0.05971638 0.0015816154 0.07686371 -0.11643262
-0.03763603 -0.03381304 0.07766469 -0.15656856 0.08782854 -0.0643824 -0.17273338 0.15414937
-0.21405566 -0.18103275 0.2155017 -0.09416906 0.17245065 -0.11787094 -0.08918468 -0.14448245
0.10922844 0.076714635 0.14816694 0.15426536 0.11736278 -0.17379688 0.1648804 0.06833229
-0.14644103 -0.0051797954 0.068237536 0.03421985 -0.05761305 0.06958009 0.06780556 0.10261093
0.120199546 -0.1025913 -0.01124776 0.024506893 -0.11529802 -0.11595052 0.12511441 0.1293078
0.04996899 -0.2174075 -0.14207141 0.044929165 0.10098362 -0.13642685 0.10747534 0.14721239
-0.013717692 -0.06637181 -0.029626627 -0.06574769 -0.060597226 -0.0063754823 0.102234885 -0.20575544
-0.069138005 -0.13129528 0.19867142 0.08144679 0.12614146 0.14400609 0.04650556 -0.014582595
-0.21131785 0.062083203 0.07679596 0.011106963 0.08589508 0.15743825 0.16608764 -0.03645966
0.14907752 -0.014992212 0.059007395 0.0557626 -0.14295386 -0.093403466 0.12832727 -0.004810766
0.026051138 0.13568263 -0.083080605 0.06001068 -0.13805285 0.07072634 0.07808989 0.04353672
-0.097876236 -0.13089205 -0.1330482 -0.19518758 -0.19878808 -0.028124005 -0.09161032 0.10230269
-0.0795816 0.18732435 0.06439651 -0.11687126 0.16054927 0.15776438 0.0048503554 -0.1659336
0.19017495 0.09359584 0.016664864 0.22500415 0.049631927 -0.10908064 -0.071251914 0.10713906
-0.1164426 -0.04248491 -0.027347041 -0.0151581 0.10401974 0.1961045 0.1029591 -0.055685714
-0.1102579 -0.06960712 -0.21965764 0.006704126 -0.06717806 0.12268469 -0.038048476 -0.02838329
0.004743174 0.20621982 -0.050195698 0.12613146 -0.05131014 0.015305693 0.060778614 0.17366645
00000000: 78c8 673e 4c37 09be 7337 40bd 094f d3bd
00000010: 03a9 17be 1286 bd3d acfb 3e3d e779 9abd
00000020: 944a 74be 5faa cabd 2161 00be b0f3 41be
00000030: abb5 eb3d 4ccd a63d 0578 3d3e 2ead 493d
00000040: 70c6 b43b 9376 073d d8ff afbc 1038 e23d
00000050: ac35 0ebd 3a76 eebc f321 3bbe 7b74 2fbc
00000060: 72d9 323e c6a0 133e ab25 9fbd 768c 39be
00000070: 505b ee3d 76da e33d b091 03be 4e34 cb3a
00000080: 581d 68bc f6c9 afbd 1b28 68bd 990c 48bd
00000090: aeb6 c33d af8f c9bd b6c1 373e 0463 5ebc
000000a0: b4ad ae3d d403 73bd 42a5 04be 73e4 493d
000000b0: 9572 47bc 05a5 ab3d b64f 9cbc e115 063e
000000c0: bfdd 51be 74e9 ac3d 3a5f 46bc 4613 303e
000000d0: c614 dbbd 8066 013b dce6 8e3d c2a7 50be
000000e0: 989b 7a3d 0375 7e3c 2dc8 a83c 47da 1c3d
000000f0: 1034 8ebd 6335 e53b 0585 37bc 1eab 6cbb
00000100: 5fcf 293e 0abd 0d3c 7eb7 973e 9d0a 39be
00000110: 5e76 3d3d 6c1e 563e 4677 093e faaf 803d
00000120: 7545 c8bd 401c 003c 7223 dbbd 4da8 34be
00000130: 6ab2 873d a94f 37bc e5a7 203d 648c 6dbd
00000140: 5f17 a83d 01ad 063e 08bb c1bc 01e8 45bd
00000150: 1ea2 713d 35ff 29bd 4a24 35bb 9321 163d
00000160: 444e 3dbc d4ad 1dbe 2f82 043e f93a bd3d
00000170: 7e04 df3d 8e1c 123d cf8c 80bc 5e88 cb3d
00000180: e4bd 873c 349d f3bd 7796 ecbd f766 0abe
00000190: 705a 693c e59b dcbd 5f5b 8dbd 0187 4e3d
000001a0: c0b2 75bc b983 183c f94f 08be d48e 06bd
000001b0: d71b 4cbe 9679 013e 91e2 45bc 4675 833d
000001c0: f96b 443e 7b40 943d 7901 853d d0fb 50bd
000001d0: 2a99 74bd 354e cf3a b96a 9d3d 3a74 eebd
000001e0: 3d28 1abd 8b7f 0abd aa0e 9f3d 8253 20be
000001f0: 73df b33d ebda 83bd 05e1 30be 55d9 1d3e
00000200: 6831 5bbe a660 39be 7aac 5c3e b5db c0bd
00000210: e796 303e 5266 f1bd 75a6 b6bd 35f3 13be
00000220: 29b3 df3d 901c 9d3d 13b9 173e bdf7 1d3e
00000230: e65b f03d cff7 31be 68d6 283e cdf1 8b3d
00000240: a3f4 15be 46bb a9bb 1fc0 8b3d 1d2a 0c3d
00000250: a9fb 6bbd 0280 8e3d a4dd 8a3d ae25 d23d
00000260: 2e2b f63d 631b d2bd 8648 38bc aec2 c83c
00000270: 5e21 ecbd 7777 edbd fe1d 003e 4469 043e
00000280: 49ac 4c3d 12a0 5ebe 2b7b 11be a507 383d
00000290: 80d0 ce3d 7bb3 0bbe 081c dc3d d8be 163e
000002a0: 2cc0 60bc f2ed 87bd 8ab3 f2bc baa6 86bd
000002b0: cc34 78bd 6ce9 d0bb 8660 d13d 8eb1 52be
000002c0: 3a98 8dbd 4572 06be 8570 4b3e 93cd a63d
000002d0: 3a2b 013e 5576 133e 9d7c 3e3d d6eb 6ebc
000002e0: b563 58be f54a 7e3d 3347 9d3d fbf9 353c
000002f0: c2e9 af3d 7e37 213e e112 2a3e b956 15bd
00000300: c7a7 183e e5a1 75bc bdb1 713d 5367 643d
00000310: 7f62 12be 514a bfbd 3968 033e a1a3 9dbb
00000320: 3269 d53c 63f0 0a3e 2a26 aabd c2cd 753d
00000330: ba5d 0dbe f9d8 903d 98ed 9f3d 8f53 323d
00000340: 5673 c8bd 9108 06be ca3d 08be 41df 47be
00000350: 1a8f 4bbe 5064 e6bc 319e bbbd 1384 d13d
00000360: aefb a2bd f4d1 3f3e 51e2 833d 335a efbd
00000370: 0767 243e fc8c 213e bbef 9e3b 7fea 29be
00000380: 39bd 423e 2daf bf3d c184 883c 7d67 663e
00000390: d94a 4b3d ac65 dfbd 86ec 91bd b96b db3d
000003a0: 7579 eebd a804 2ebd e706 e0bc ae59 78bc
000003b0: 4d08 d53d 9ecf 483e 38dc d23d b416 64bd
000003c0: e5ce e1bd 2d8e 8ebd efed 60be 49ae db3b
000003d0: a794 89bd 1c42 fb3d b8d8 1bbd 1384 e8bc
000003e0: a16c 9b3b 4a2b 533e 019a 4dbd 9b28 013e
000003f0: 952a 52bd bbc4 7a3c fff2 783d 9ed5 313e

bias f4 [50]
-0.12664112 -0.017391387 -0.115735345 -0.06306437 -0.024893215 -0.045210995 0.07483671 0.036180217
-0.06941046 0.057742 -0.026176153 -0.056252327 0.015137177 0.11590199 0.14705482 0.12358681
-0.01963497 0.053392604 -0.012946941 0.11454598 0.11356791 0.08345378 0.12709455 0.13483703
-0.071497716 0.010495256 0.022981172 0.10692115 -0.12642127 0.122040614 0.09773458 0.062367443
-0.056793664 -0.012202451 -0.045964517 -0.055250745 0.017593004 0.07003914 0.08556222 0.14099777
0.12397777 -0.13182549 0.095859 -0.004886685 0.035983574 0.07121066 0.07846269 0.08165472
-0.111955516 0.0256952
00000000: 36ae 01be 6278 8ebc a706 edbd e427 81bd
00000010: dbec cbbc 2a2f 39bd fd43 993d b531 143d
00000020: 1227 8ebd e082 6c3d 5f6f d6bc d768 66bd
00000030: ec01 783c 065e ed3d 8a95 163e 151b fd3d
00000040: 84d9 a0bc 34b2 5a3d 681f 54bc 1597 ea3d
00000050: 4b96 e83d d1e9 aa3d 1325 023e b812 0a3e
00000060: 656d 92bd 4bf4 2b3c 0343 bc3c 7af9 da3d
00000070: 9474 01be 6ef0 f93d 1129 c83d 0175 7f3d
00000080: 79a0 68bd caec 47bc 4a45 3cbd 9b4e 62bd
00000090: 341f 903c ae70 8f3d 3f3b af3d b861 103e
000000a0: 0fe8 fd3d 43fd 06be b951 c43d 7c20 a0bb
000000b0: 8363 133d e5d6 913d 0cb1 a03d 973a a73d
000000c0: ef48 e5bd bd7e d23c

weight f4 [50]
0.9995191 1.015884 1.0060643 0.9249874 0.96941096 1.0130125 1.0579284 0.95401126
1.1187786 0.95969397 0.9094124 1.0470672 0.96896213 1.0103469 0.9399371 0.91006225
1.0315467 0.94442993 1.0036352 1.0546576 0.9080136 1.1724612 1.074203 0.95824677
1.0156858 0.9788592 0.9804751 1.021693 0.8829597 1.0611831 1.038067 1.0104288
1.0205842 0.98899674 1.1960641 0.9362548 0.9602911 0.93451184 1.0048617 1.0663214
1.0108805 1.0648901 0.9229504 0.9230829 0.98723835 1.0355264 1.0244361 1.0264622
1.1823918 0.9100136
00000000: 7ce0 7f3f 7d08 823f b7c6 803f f9cb 6c3f
00000010: 512b 783f 65aa 813f 336a 873f 153a 743f
00000020: 2334 8f3f 81ae 753f 40cf 683f 4c06 863f
00000030: e70d 783f 0c53 813f b89f 703f d7f9 683f
00000040: b909 843f 29c6 713f 1e77 803f 05ff 863f
00000050: 9473 683f 3513 963f 7c7f 893f a94f 753f
00000060: fe01 823f 8496 7a3f 6b00 7b3f d6c6 823f
00000070: a609 623f d9d4 873f 61df 843f bb55 813f
00000080: 81a2 823f e42e 7d3f a118 993f 65ae 6f3f
00000090: a3d5 753f 2b3c 6f3f 4f9f 803f 387d 883f
000000a0: 8864 813f 524e 883f 7a46 6c3f 294f 6c3f
000000b0: a7bb 7c3f 218c 843f b920 833f 1d63 833f
000000c0: 9d58 973f a7f6 683f

bias f4 [50]
-0.05552384 -0.2083569 -0.11644093 -0.18994784 -0.2501478 -0.13450627 -0.07022853 0.108273156
-0.032740828 -0.14175016 -0.031014912 -0.23177882 -0.26967192 -0.1830826 -0.24003045 -0.14602607
-0.017096192 -0.17496784 -0.13122977 -0.104399055 -0.13361837 -0.09849238 -0.008670697 -0.073095016
0.0323868 -0.10437295 -0.108804174 -0.16545708 -0.1969805 -0.13383205 -0.030187014 -0.099240094
0.0014466718 -0.11870186 -0.066355176 0.021608815 -0.18553722 -0.15347992 -0.017115327 -0.049285278
-0.2464746 -0.1703432 -0.20994121 -0.3397185 -0.089373 -0.14307512 0.10503576 -0.08814984
-0.01936657 -0.27247706
00000000: f76c 63bd 835b 55be 9578 eebd b081 42be
00000010: 5f13 80be 03bc 09be fad3 8fbd 51be dd3d
00000020: 3f1b 06bd f426 11be fc12 febc 6d57 6dbe
00000030: 7012 8abe 017a 3bbe 8bca 75be dc87 15be
00000040: 500d 8cbc c52a 33be 1961 06be 2ccf d5bd
00000050: 41d3 08be 5fb6 c9bd 8a0f 0ebc d7b2 95bd
00000060: 05a8 043d 7cc1 d5bd b9d4 debd 956d 29be
00000070: 42b5 49be 450b 09be c24a f7bc 643e cbbd
00000080: 409e bd3a f619 f3bd 39e5 87bd f804 b13c
00000090: 78fd 3dbe d729 1dbe 7135 8cbc 5cdf 49bd
000000a0: d663 7cbe 736e 2ebe d4fa 56be 95ef adbe
000000b0: 3109 b7bd 4982 12be fd1c d73d e787 b4bd
000000c0: a4a6 9ebc 1d82 8bbe

running_mean f4 [50]
-0.44328234 -0.45587572 0.9890844 -0.019639475 0.5330576 -0.42407784 -0.63069135 -0.072222844
-1.0438379 0.9865405 0.6523894 -1.2185948 -0.3062313 -0.48980755 0.9589443 -0.16189317
-1.1088014 -0.04278801 -0.13721147 -1.0205798 -0.42749727 -0.5238659 -0.024259998 -0.1787988
-1.0216297 -0.81351763 0.8933615 0.19500859 0.045284063 0.1294897 0.58696216 -0.11214235
-0.16448292 -0.60144836 -0.101869285 -0.13435976 -0.61188364 -1.223242 0.06668879 -0.13455814
-0.17101358 -0.77775896 1.1189953 -0.48134577 0.851795 0.06401188 -0.6578798 -0.17036042
-0.7347573 0.69079554
00000000: e7f5 e2be 8b68 e9be a334 7d3f f7e2 a0bc
00000010: 7676 083f bb20 d9be fd74 21bf 92e9 93bd
00000020: 7b9c 85bf eb8d 7c3f fe02 273f eafa 9bbf
00000030: 59ca 9cbe 0ec8 fabe 607d 753f 53c7 25be
00000040: 34ed 8dbf 7b42 2fbd 2a81 0cbe 5ca2 82bf
00000050: ece0 dabe 131c 06bf e7bc c6bc 0817 37be
00000060: c3c4 82bf b142 50bf 57b3 643f 55b0 473e
00000070: c87b 393d f398 043e 2743 163f e3aa e5bd
00000080: 366e 28be 85f8 19bf d8a0 d0bd 9b95 09be
00000090: 68a4 1cbf 3293 9cbf 2294 883d 9cc9 09be
000000a0: 2f1e 2fbe 361b 47bf 3d3b 8f3f f472 f6be
000000b0: 3d0f 5a3f a918 833d d06a 28bf f672 2ebe
000000c0: 0e19 3cbf fad7 303f

running_var f4 [50]
0.45018065 0.45117742 0.51538724 0.4646506 0.48542178 0.4558074 0.5489934 0.51989436
0.45085415 0.39966577 0.42234927 0.37875015 0.31642145 0.56615716 0.40953505 0.42849568
0.55904704 0.4615433 0.43725052 0.40788487 0.5335877 0.5504546 0.5011537 0.3803626
0.5955143 0.3847534 0.52593434 0.48756027 0.41400236 0.64185005 0.4567982 0.4737952
0.504008 0.5789173 0.49835303 0.4335829 0.49819446 0.44411275 0.58705807 0.4841429
0.40905687 0.43501356 0.46091175 0.44969678 0.41442427 0.5870587 0.5857284 0.5923599
0.7169973 0.51211643
00000000: 147e e63e ba00 e73e 6bf0 033f afe6 ed3e
00000010: 3489 f83e 965f e93e d58a 0c3f cc17 053f
00000020: 5bd6 e63e fea0 cc3e 2a3e d83e 8aeb c13e
00000030: fe01 a23e adef 103f 94ae d13e c963 db3e
00000040: b51d 0f3f 674f ec3e 4ddf df3e 49d6 d03e
00000050: 3499 083f 98ea 0c3f 9c4b 003f e3be c23e
00000060: a073 183f 66fe c43e a2a3 063f 80a1 f93e
00000070: 1ef8 d33e 4950 243f 74e1 e93e 4995 f23e
00000080: ab06 013f ed33 143f 2128 ff3e 94fe dd3e
00000090: 5813 ff3e bf62 e33e 7049 163f 94e1 f73e
000000a0: e76f d13e 19ba de3e a0fc eb3e a83e e63e
000000b0: 6b2f d43e 7b49 163f 4cf2 153f e6a4 173f
000000c0: 238d 373f 101a 033f
